ST Edge AI Core v3.0.0-20426 123672867
Created date          : 2026-01-22 15:46:35
Parameters            : generate --model /tmp/stm32ai_service/d585f007-e6cd-4e1b-958c-81d9631aa487/model_cnn_attention_PerChannel_quant_random_1.onnx --optimization time --target stm32f4 --name network --workspace /tmp/stm32ai_service/d585f007-e6cd-4e1b-958c-81d9631aa487/workspace --output /tmp/stm32ai_service/d585f007-e6cd-4e1b-958c-81d9631aa487/output

Exec/report summary (generate)
--------------------------------------------------------------------------------------------------------------------------------------
model file         :   /tmp/stm32ai_service/d585f007-e6cd-4e1b-958c-81d9631aa487/model_cnn_attention_PerChannel_quant_random_1.onnx   
type               :   onnx                                                                                                           
c_name             :   network                                                                                                        
compression        :   lossless                                                                                                       
options            :   allocate-inputs, allocate-outputs, use-lite-runtime, use-st-ai                                                 
optimization       :   time                                                                                                           
target/series      :   stm32f4                                                                                                        
workspace dir      :   /tmp/stm32ai_service/d585f007-e6cd-4e1b-958c-81d9631aa487/workspace                                            
output dir         :   /tmp/stm32ai_service/d585f007-e6cd-4e1b-958c-81d9631aa487/output                                               
model_fmt          :   sa/sa per tensor                                                                                               
model_name         :   model_cnn_attention_PerChannel_quant_random_1                                                                  
model_hash         :   0xb5397d57cd31df9565cc7ffea42b059f                                                                             
params #           :   418 items (1.63 KiB)                                                                                           
--------------------------------------------------------------------------------------------------------------------------------------
input 1/1          :   'input', int8(1x30x10), 300 Bytes, QLinear(0.003921320,-128,int8), activations                                 
output 1/1         :   'output_QuantizeLinear_Input', int8(1x1), 1 Bytes, QLinear(0.000644469,-128,int8), activations                 
macc               :   271,374,503                                                                                                    
weights (ro)       :   600 B (600 B) (1 segment) / -1,072(-64.1%) vs float model                                                      
activations (rw)   :   224,008 B (218.76 KiB) (1 segment) *                                                                           
ram (total)        :   224,008 B (218.76 KiB) = 224,008 + 0 + 0                                                                       
--------------------------------------------------------------------------------------------------------------------------------------
(*) 'input'/'output' buffers are allocated in the activations buffer

Model name - model_cnn_attention_PerChannel_quant_random_1
------ ---------------------------------------------------------------- --------------------- ------------ ------------- -------------------------------- --- --------------- -------------------- --------------------------------------------------------------------------------------------------------------------------------------- 
m_id   layer (type,original)                                            oshape                param/size            macc                     connected to   | c_size          c_macc               c_type                                                                                                                                  
------ ---------------------------------------------------------------- --------------------- ------------ ------------- -------------------------------- --- --------------- -------------------- --------------------------------------------------------------------------------------------------------------------------------------- 
0      input (Input, )                                                  [b:1,h:10,c:30]                                                                     |                                      
------ ---------------------------------------------------------------- --------------------- ------------ ------------- -------------------------------- --- --------------- -------------------- --------------------------------------------------------------------------------------------------------------------------------------- 
1      _Constant_10_outpu..tput_const (Placeholder, DequantizeLinear)   [b:12]                12/48                                                         | -48(-100.0%)                         
------ ---------------------------------------------------------------- --------------------- ------------ ------------- -------------------------------- --- --------------- -------------------- --------------------------------------------------------------------------------------------------------------------------------------- 
2      _Constant_11_outpu..tput_const (Placeholder, DequantizeLinear)   []                    1/4                                                           | -4(-100.0%)                          
------ ---------------------------------------------------------------- --------------------- ------------ ------------- -------------------------------- --- --------------- -------------------- --------------------------------------------------------------------------------------------------------------------------------------- 
3      _Constant_12_output_0_const (Placeholder, DequantizeLinear)      [b:1]                 1/4                                                           | -4(-100.0%)                          
------ ---------------------------------------------------------------- --------------------- ------------ ------------- -------------------------------- --- --------------- -------------------- --------------------------------------------------------------------------------------------------------------------------------------- 
6      _Constant_5_output..tput_const (Placeholder, DequantizeLinear)   [b:8,c:12]            96/384                                                        | -384(-100.0%)                        
------ ---------------------------------------------------------------- --------------------- ------------ ------------- -------------------------------- --- --------------- -------------------- --------------------------------------------------------------------------------------------------------------------------------------- 
7      _Constant_6_output..tput_const (Placeholder, DequantizeLinear)   [b:12]                12/48                                                         | -48(-100.0%)                         
------ ---------------------------------------------------------------- --------------------- ------------ ------------- -------------------------------- --- --------------- -------------------- --------------------------------------------------------------------------------------------------------------------------------------- 
8      _Constant_7_output..tput_const (Placeholder, DequantizeLinear)   [b:8,c:12]            96/384                                                        | -384(-100.0%)                        
------ ---------------------------------------------------------------- --------------------- ------------ ------------- -------------------------------- --- --------------- -------------------- --------------------------------------------------------------------------------------------------------------------------------------- 
9      _Constant_8_output..tput_const (Placeholder, DequantizeLinear)   [b:12]                12/48                                                         | -48(-100.0%)                         
------ ---------------------------------------------------------------- --------------------- ------------ ------------- -------------------------------- --- --------------- -------------------- --------------------------------------------------------------------------------------------------------------------------------------- 
10     _Constant_9_output..tput_const (Placeholder, DequantizeLinear)   [b:8,c:12]            96/384                                                        | -384(-100.0%)                        
------ ---------------------------------------------------------------- --------------------- ------------ ------------- -------------------------------- --- --------------- -------------------- --------------------------------------------------------------------------------------------------------------------------------------- 
11     _Constant_output_0..tput_const (Placeholder, DequantizeLinear)   [b:1,c:12]            12/48                                                         | -48(-100.0%)                         
------ ---------------------------------------------------------------- --------------------- ------------ ------------- -------------------------------- --- --------------- -------------------- --------------------------------------------------------------------------------------------------------------------------------------- 
12     _Unsqueeze_output_0 (Reshape, Unsqueeze)                         [b:1,h:30,w:10,c:1]                                                         input   |                 +150(+100.0%)        Transpose_[2]                                                                                                                           
------ ---------------------------------------------------------------- --------------------- ------------ ------------- -------------------------------- --- --------------- -------------------- --------------------------------------------------------------------------------------------------------------------------------------- 
13     _Unsqueeze_output_..ear_Output (Conversion, QuantizeLinear)      [b:1,h:30,w:10,c:1]                          600              _Unsqueeze_output_0   |                 -600(-100.0%)        
------ ---------------------------------------------------------------- --------------------- ------------ ------------- -------------------------------- --- --------------- -------------------- --------------------------------------------------------------------------------------------------------------------------------------- 
14     _Unsqueeze_output_..ear_Output (Conversion, DequantizeLinear)    [b:1,h:30,w:10,c:1]                          600   _Unsqueeze_output_..ear_Output   |                 -600(-100.0%)        
------ ---------------------------------------------------------------- --------------------- ------------ ------------- -------------------------------- --- --------------- -------------------- --------------------------------------------------------------------------------------------------------------------------------------- 
15     _Relu_output_0 (Conv2D, Conv)                                    [b:1,h:28,w:8,c:8]    80/320              16,136   _Unsqueeze_output_..ear_Output   | -216(-67.5%)                         Conv2D_[3]                                                                                                                              
------ ---------------------------------------------------------------- --------------------- ------------ ------------- -------------------------------- --- --------------- -------------------- --------------------------------------------------------------------------------------------------------------------------------------- 
16     _Relu_output_0_Qua..ear_Output (Conversion, QuantizeLinear)      [b:1,h:28,w:8,c:8]                         3,584                   _Relu_output_0   |                 -3,584(-100.0%)      
------ ---------------------------------------------------------------- --------------------- ------------ ------------- -------------------------------- --- --------------- -------------------- --------------------------------------------------------------------------------------------------------------------------------------- 
17     _Relu_output_0_Deq..ear_Output (Conversion, DequantizeLinear)    [b:1,h:28,w:8,c:8]                         3,584   _Relu_output_0_Qua..ear_Output   |                 -3,584(-100.0%)      
------ ---------------------------------------------------------------- --------------------- ------------ ------------- -------------------------------- --- --------------- -------------------- --------------------------------------------------------------------------------------------------------------------------------------- 
18     _Reshape_output_0 (Reshape, Reshape)                             [b:1,h:224,c:8]                                    _Relu_output_0_Deq..ear_Output   |                                      
------ ---------------------------------------------------------------- --------------------- ------------ ------------- -------------------------------- --- --------------- -------------------- --------------------------------------------------------------------------------------------------------------------------------------- 
19     _Reshape_output_0_..ear_Output (Conversion, QuantizeLinear)      [b:1,h:224,c:8]                            3,584                _Reshape_output_0   |                 -3,584(-100.0%)      
------ ---------------------------------------------------------------- --------------------- ------------ ------------- -------------------------------- --- --------------- -------------------- --------------------------------------------------------------------------------------------------------------------------------------- 
20     _Reshape_output_0_..ear_Output (Conversion, DequantizeLinear)    [b:1,h:224,c:8]                            3,584   _Reshape_output_0_..ear_Output   |                 -3,584(-100.0%)      
------ ---------------------------------------------------------------- --------------------- ------------ ------------- -------------------------------- --- --------------- -------------------- --------------------------------------------------------------------------------------------------------------------------------------- 
21     _Transpose_output_0 (Transpose, Transpose)                       [b:1,h:8,c:224]                              896   _Reshape_output_0_..ear_Output   |                 -896(-100.0%)        
------ ---------------------------------------------------------------- --------------------- ------------ ------------- -------------------------------- --- --------------- -------------------- --------------------------------------------------------------------------------------------------------------------------------------- 
22     _Transpose_output_..ear_Output (Conversion, QuantizeLinear)      [b:1,h:8,c:224]                            3,584              _Transpose_output_0   |                 -3,584(-100.0%)      
------ ---------------------------------------------------------------- --------------------- ------------ ------------- -------------------------------- --- --------------- -------------------- --------------------------------------------------------------------------------------------------------------------------------------- 
23     _Transpose_output_..ear_Output (Conversion, DequantizeLinear)    [b:1,h:8,c:224]                            3,584   _Transpose_output_..ear_Output   |                 -3,584(-100.0%)      
------ ---------------------------------------------------------------- --------------------- ------------ ------------- -------------------------------- --- --------------- -------------------- --------------------------------------------------------------------------------------------------------------------------------------- 
24     _MatMul_output_0 (Gemm, MatMul)                                  [b:1,h:12,c:224]                       4,819,584   _Transpose_output_..ear_Output   | +144(+100.0%)   -4,796,724(-99.5%)   Conv2D_/Transpose_[4, 5]                                                                                                                
                                                                                                                           _Constant_5_output..tput_const   | 
------ ---------------------------------------------------------------- --------------------- ------------ ------------- -------------------------------- --- --------------- -------------------- --------------------------------------------------------------------------------------------------------------------------------------- 
25     _MatMul_1_output_0 (Gemm, MatMul)                                [b:1,h:12,c:224]                       4,819,584   _Transpose_output_..ear_Output   | +144(+100.0%)   -4,795,828(-99.5%)   Transpose_/Conv2D_/Transpose_[9, 10, 11]                                                                                                
                                                                                                                           _Constant_7_output..tput_const   | 
------ ---------------------------------------------------------------- --------------------- ------------ ------------- -------------------------------- --- --------------- -------------------- --------------------------------------------------------------------------------------------------------------------------------------- 
26     _MatMul_2_output_0 (Gemm, MatMul)                                [b:1,h:12,c:224]                       4,819,584   _Transpose_output_..ear_Output   | +144(+100.0%)   -4,795,828(-99.5%)   Transpose_/Conv2D_/Transpose_[23, 24, 25]                                                                                               
                                                                                                                           _Constant_9_output..tput_const   | 
------ ---------------------------------------------------------------- --------------------- ------------ ------------- -------------------------------- --- --------------- -------------------- --------------------------------------------------------------------------------------------------------------------------------------- 
27     _MatMul_output_0_Q..ear_Output (Conversion, QuantizeLinear)      [b:1,h:12,c:224]                           5,376                 _MatMul_output_0   |                 -5,376(-100.0%)      
------ ---------------------------------------------------------------- --------------------- ------------ ------------- -------------------------------- --- --------------- -------------------- --------------------------------------------------------------------------------------------------------------------------------------- 
28     _MatMul_1_output_0..ear_Output (Conversion, QuantizeLinear)      [b:1,h:12,c:224]                           5,376               _MatMul_1_output_0   |                 -5,376(-100.0%)      
------ ---------------------------------------------------------------- --------------------- ------------ ------------- -------------------------------- --- --------------- -------------------- --------------------------------------------------------------------------------------------------------------------------------------- 
29     _MatMul_2_output_0..ear_Output (Conversion, QuantizeLinear)      [b:1,h:12,c:224]                           5,376               _MatMul_2_output_0   |                 -5,376(-100.0%)      
------ ---------------------------------------------------------------- --------------------- ------------ ------------- -------------------------------- --- --------------- -------------------- --------------------------------------------------------------------------------------------------------------------------------------- 
30     _MatMul_output_0_D..ear_Output (Conversion, DequantizeLinear)    [b:1,h:12,c:224]                           5,376   _MatMul_output_0_Q..ear_Output   |                 -5,376(-100.0%)      
------ ---------------------------------------------------------------- --------------------- ------------ ------------- -------------------------------- --- --------------- -------------------- --------------------------------------------------------------------------------------------------------------------------------------- 
31     _MatMul_1_output_0..ear_Output (Conversion, DequantizeLinear)    [b:1,h:12,c:224]                           5,376   _MatMul_1_output_0..ear_Output   |                 -5,376(-100.0%)      
------ ---------------------------------------------------------------- --------------------- ------------ ------------- -------------------------------- --- --------------- -------------------- --------------------------------------------------------------------------------------------------------------------------------------- 
32     _MatMul_2_output_0..ear_Output (Conversion, DequantizeLinear)    [b:1,h:12,c:224]                           5,376   _MatMul_2_output_0..ear_Output   |                 -5,376(-100.0%)      
------ ---------------------------------------------------------------- --------------------- ------------ ------------- -------------------------------- --- --------------- -------------------- --------------------------------------------------------------------------------------------------------------------------------------- 
33     _Add_output_0 (Eltwise, Add)                                     [b:1,h:12,c:224]                              12   _Constant_6_output..tput_const   | +12(+100.0%)                         Eltwise/add_[6]                                                                                                                         
                                                                                                                           _MatMul_output_0_D..ear_Output   | 
------ ---------------------------------------------------------------- --------------------- ------------ ------------- -------------------------------- --- --------------- -------------------- --------------------------------------------------------------------------------------------------------------------------------------- 
34     _Add_1_output_0 (Eltwise, Add)                                   [b:1,h:12,c:224]                              12   _Constant_8_output..tput_const   | +12(+100.0%)    +5,376(+44800.0%)    Eltwise/add_/Conversion_[12, 13]                                                                                                        
                                                                                                                           _MatMul_1_output_0..ear_Output   | 
------ ---------------------------------------------------------------- --------------------- ------------ ------------- -------------------------------- --- --------------- -------------------- --------------------------------------------------------------------------------------------------------------------------------------- 
35     _Add_2_output_0 (Eltwise, Add)                                   [b:1,h:12,c:224]                              12   _Constant_10_outpu..tput_const   | +12(+100.0%)                         Eltwise/add_[26]                                                                                                                        
                                                                                                                           _MatMul_2_output_0..ear_Output   | 
------ ---------------------------------------------------------------- --------------------- ------------ ------------- -------------------------------- --- --------------- -------------------- --------------------------------------------------------------------------------------------------------------------------------------- 
36     _Add_output_0_Quan..ear_Output (Conversion, QuantizeLinear)      [b:1,h:12,c:224]                           5,376                    _Add_output_0   |                 -5,376(-100.0%)      
------ ---------------------------------------------------------------- --------------------- ------------ ------------- -------------------------------- --- --------------- -------------------- --------------------------------------------------------------------------------------------------------------------------------------- 
37     _Add_1_output_0_Qu..ear_Output (Conversion, QuantizeLinear)      [b:1,h:12,c:224]                           5,376                  _Add_1_output_0   |                 -5,376(-100.0%)      
------ ---------------------------------------------------------------- --------------------- ------------ ------------- -------------------------------- --- --------------- -------------------- --------------------------------------------------------------------------------------------------------------------------------------- 
38     _Add_2_output_0_Qu..ear_Output (Conversion, QuantizeLinear)      [b:1,h:12,c:224]                           5,376                  _Add_2_output_0   |                 -5,376(-100.0%)      
------ ---------------------------------------------------------------- --------------------- ------------ ------------- -------------------------------- --- --------------- -------------------- --------------------------------------------------------------------------------------------------------------------------------------- 
39     _Add_output_0_Dequ..ear_Output (Conversion, DequantizeLinear)    [b:1,h:12,c:224]                           5,376   _Add_output_0_Quan..ear_Output   |                 -5,376(-100.0%)      
------ ---------------------------------------------------------------- --------------------- ------------ ------------- -------------------------------- --- --------------- -------------------- --------------------------------------------------------------------------------------------------------------------------------------- 
40     _Add_1_output_0_De..ear_Output (Conversion, DequantizeLinear)    [b:1,h:12,c:224]                           5,376   _Add_1_output_0_Qu..ear_Output   |                 -5,376(-100.0%)      
------ ---------------------------------------------------------------- --------------------- ------------ ------------- -------------------------------- --- --------------- -------------------- --------------------------------------------------------------------------------------------------------------------------------------- 
41     _Add_2_output_0_De..ear_Output (Conversion, DequantizeLinear)    [b:1,h:12,c:224]                           5,376   _Add_2_output_0_Qu..ear_Output   |                 -5,376(-100.0%)      
------ ---------------------------------------------------------------- --------------------- ------------ ------------- -------------------------------- --- --------------- -------------------- --------------------------------------------------------------------------------------------------------------------------------------- 
42     _Transpose_1_output_0 (Transpose, Transpose)                     [b:1,h:224,c:12]                           1,344   _Add_1_output_0_De..ear_Output   |                 -1,344(-100.0%)      
------ ---------------------------------------------------------------- --------------------- ------------ ------------- -------------------------------- --- --------------- -------------------- --------------------------------------------------------------------------------------------------------------------------------------- 
43     _Transpose_1_outpu..ear_Output (Conversion, QuantizeLinear)      [b:1,h:224,c:12]                           5,376            _Transpose_1_output_0   |                 -5,376(-100.0%)      
------ ---------------------------------------------------------------- --------------------- ------------ ------------- -------------------------------- --- --------------- -------------------- --------------------------------------------------------------------------------------------------------------------------------------- 
44     _Transpose_1_outpu..ear_Output (Conversion, DequantizeLinear)    [b:1,h:224,c:12]                           5,376   _Transpose_1_outpu..ear_Output   |                 -5,376(-100.0%)      
------ ---------------------------------------------------------------- --------------------- ------------ ------------- -------------------------------- --- --------------- -------------------- --------------------------------------------------------------------------------------------------------------------------------------- 
45     _MatMul_3_output_0 (Gemm, MatMul)                                [b:1,h:224,c:224]                    134,923,264   _Add_output_0_Dequ..ear_Output   | +1(+100.0%)     +132,162(+0.1%)      Conversion_/Transpose_/Conversion_/Gemm_/Conversion_/Transpose_[1, 7, 8, 14, 15, 16]                                                    
                                                                                                                           _Transpose_1_outpu..ear_Output   | 
------ ---------------------------------------------------------------- --------------------- ------------ ------------- -------------------------------- --- --------------- -------------------- --------------------------------------------------------------------------------------------------------------------------------------- 
46     _MatMul_3_output_0..ear_Output (Conversion, QuantizeLinear)      [b:1,h:224,c:224]                        100,352               _MatMul_3_output_0   |                 -100,352(-100.0%)    
------ ---------------------------------------------------------------- --------------------- ------------ ------------- -------------------------------- --- --------------- -------------------- --------------------------------------------------------------------------------------------------------------------------------------- 
47     _MatMul_3_output_0..ear_Output (Conversion, DequantizeLinear)    [b:1,h:224,c:224]                        100,352   _MatMul_3_output_0..ear_Output   |                 -100,352(-100.0%)    
------ ---------------------------------------------------------------- --------------------- ------------ ------------- -------------------------------- --- --------------- -------------------- --------------------------------------------------------------------------------------------------------------------------------------- 
48     _Div_output_0 (Eltwise, Div)                                     [b:1,h:224,c:224]                        250,880   _MatMul_3_output_0..ear_Output   | +1(+100.0%)     +100,352(+40.0%)     Eltwise/div_/Conversion_[17, 18]                                                                                                        
                                                                                                                           _Constant_11_outpu..tput_const   | 
------ ---------------------------------------------------------------- --------------------- ------------ ------------- -------------------------------- --- --------------- -------------------- --------------------------------------------------------------------------------------------------------------------------------------- 
49     _Div_output_0_Quan..ear_Output (Conversion, QuantizeLinear)      [b:1,h:224,c:224]                        100,352                    _Div_output_0   |                 -100,352(-100.0%)    
------ ---------------------------------------------------------------- --------------------- ------------ ------------- -------------------------------- --- --------------- -------------------- --------------------------------------------------------------------------------------------------------------------------------------- 
50     _Div_output_0_Dequ..ear_Output (Conversion, DequantizeLinear)    [b:1,h:224,c:224]                        100,352   _Div_output_0_Quan..ear_Output   |                 -100,352(-100.0%)    
------ ---------------------------------------------------------------- --------------------- ------------ ------------- -------------------------------- --- --------------- -------------------- --------------------------------------------------------------------------------------------------------------------------------------- 
51     _Softmax_output_0 (Nonlinearity, Softmax)                        [b:1,h:224,c:224]                        752,640   _Div_output_0_Dequ..ear_Output   |                 +100,352(+13.3%)     Nonlinearity_/Conversion_[19, 20]                                                                                                       
------ ---------------------------------------------------------------- --------------------- ------------ ------------- -------------------------------- --- --------------- -------------------- --------------------------------------------------------------------------------------------------------------------------------------- 
52     _Softmax_output_0_..ear_Output (Conversion, QuantizeLinear)      [b:1,h:224,c:224]                        100,352                _Softmax_output_0   |                 -100,352(-100.0%)    
------ ---------------------------------------------------------------- --------------------- ------------ ------------- -------------------------------- --- --------------- -------------------- --------------------------------------------------------------------------------------------------------------------------------------- 
53     _Softmax_output_0_..ear_Output (Conversion, DequantizeLinear)    [b:1,h:224,c:224]                        100,352   _Softmax_output_0_..ear_Output   |                 -100,352(-100.0%)    
------ ---------------------------------------------------------------- --------------------- ------------ ------------- -------------------------------- --- --------------- -------------------- --------------------------------------------------------------------------------------------------------------------------------------- 
54     _MatMul_4_output_0 (Gemm, MatMul)                                [b:1,h:12,c:224]                     134,875,776   _Softmax_output_0_..ear_Output   | +1(+100.0%)     +144,258(+0.1%)      Conversion_/Transpose_/Conversion_/Transpose_/Conversion_/Gemm_/Conversion_/Transpose_/Conversion_[0, 21, 22, 27, 28, 29, 30, 31, 32]   
                                                                                                                           _Add_2_output_0_De..ear_Output   | 
------ ---------------------------------------------------------------- --------------------- ------------ ------------- -------------------------------- --- --------------- -------------------- --------------------------------------------------------------------------------------------------------------------------------------- 
55     _MatMul_4_output_0..ear_Output (Conversion, QuantizeLinear)      [b:1,h:12,c:224]                           5,376               _MatMul_4_output_0   |                 -5,376(-100.0%)      
------ ---------------------------------------------------------------- --------------------- ------------ ------------- -------------------------------- --- --------------- -------------------- --------------------------------------------------------------------------------------------------------------------------------------- 
56     _MatMul_4_output_0..ear_Output (Conversion, DequantizeLinear)    [b:1,h:12,c:224]                           5,376   _MatMul_4_output_0..ear_Output   |                 -5,376(-100.0%)      
------ ---------------------------------------------------------------- --------------------- ------------ ------------- -------------------------------- --- --------------- -------------------- --------------------------------------------------------------------------------------------------------------------------------------- 
57     _ReduceMean_output_0 (Reduce, ReduceMean)                        [b:1,c:12]                                 5,376   _MatMul_4_output_0..ear_Output   | +96(+100.0%)    -2,640(-49.1%)       Reduce_/ScaleBias_/Conversion_[33, 34, 35]                                                                                              
------ ---------------------------------------------------------------- --------------------- ------------ ------------- -------------------------------- --- --------------- -------------------- --------------------------------------------------------------------------------------------------------------------------------------- 
58     _ReduceMean_output..ear_Output (Conversion, QuantizeLinear)      [b:1,c:12]                                    24             _ReduceMean_output_0   |                 -24(-100.0%)         
------ ---------------------------------------------------------------- --------------------- ------------ ------------- -------------------------------- --- --------------- -------------------- --------------------------------------------------------------------------------------------------------------------------------------- 
59     _ReduceMean_output..ear_Output (Conversion, DequantizeLinear)    [b:1,c:12]                                    24   _ReduceMean_output..ear_Output   |                 -24(-100.0%)         
------ ---------------------------------------------------------------- --------------------- ------------ ------------- -------------------------------- --- --------------- -------------------- --------------------------------------------------------------------------------------------------------------------------------------- 
60     output_QuantizeLinear_Input (Gemm, Gemm)                         [b:1,c:1]                                     13   _ReduceMean_output..ear_Output   | +16(+100.0%)                         Dense_[o][36]                                                                                                                           
                                                                                                                           _Constant_output_0..tput_const   | 
                                                                                                                              _Constant_12_output_0_const   | 
------ ---------------------------------------------------------------- --------------------- ------------ ------------- -------------------------------- --- --------------- -------------------- --------------------------------------------------------------------------------------------------------------------------------------- 
61     output_QuantizeLinear_Output (Conversion, QuantizeLinear)        [b:1,c:1]                                      2      output_QuantizeLinear_Input   |                 -2(-100.0%)          
------ ---------------------------------------------------------------- --------------------- ------------ ------------- -------------------------------- --- --------------- -------------------- --------------------------------------------------------------------------------------------------------------------------------------- 
62     output (Conversion, DequantizeLinear)                            [b:1,c:1]                                      2     output_QuantizeLinear_Output   |                 -2(-100.0%)          
------ ---------------------------------------------------------------- --------------------- ------------ ------------- -------------------------------- --- --------------- -------------------- --------------------------------------------------------------------------------------------------------------------------------------- 
model/c-model: macc=285,995,997/271,374,503 -14,621,494(-5.1%) weights=1,672/600 -1,072(-64.1%) activations=--/224,008 io=--/0



Generated C-graph summary
------------------------------------------------------------------------------------------------------------------------
model name            : model_cnn_attention_PerChannel_quant_random_1
c-name                : network
c-node #              : 37
c-array #             : 59
activations size      : 224008 (1 segment)
weights size          : 600 (1 segment)
macc                  : 271374503
inputs                : ['input_output']
outputs               : ['output_QuantizeLinear_Input_output']

C-Arrays (59)
------ -------------------------------------------------------------------------------- -------------- ------------------------- ------------- --------- 
c_id   name (*_array)                                                                   item/size      domain/mem-pool           c-type        comment   
------ -------------------------------------------------------------------------------- -------------- ------------------------- ------------- --------- 
0      _Add_1_output_0_0_1__MatMul_3_output_0_conversion_output                         2688/10752     activations/**default**   float                   
1      _Add_1_output_0_output                                                           2688/2688      activations/**default**   s8                      
2      _Add_2_output_0_output                                                           2688/2688      activations/**default**   s8                      
3      _Add_output_0_output                                                             2688/2688      activations/**default**   s8                      
4      _Constant_10_output_0_DequantizeLinear_Output_const_3D                           12/12          weights/weights           const s8                
5      _Constant_11_output_0_DequantizeLinear_Output_const_3D                           1/1            weights/weights           const s8                
6      _Constant_6_output_0_DequantizeLinear_Output_const_3D                            12/12          weights/weights           const s8                
7      _Constant_8_output_0_DequantizeLinear_Output_const_3D                            12/12          weights/weights           const s8                
8      _Div_output_0_0_0__Softmax_output_0_conversion_output                            50176/200704   activations/**default**   float                   
9      _Div_output_0_output                                                             50176/50176    activations/**default**   s8                      
10     _MatMul_1_output_0_gemm_to_dense_in_transpose_output                             1792/1792      activations/**default**   s8                      
11     _MatMul_1_output_0_gemm_to_dense_out_transpose_output                            2688/2688      activations/**default**   s8                      
12     _MatMul_1_output_0_gemm_to_dense_output                                          2688/2688      activations/**default**   s8                      
13     _MatMul_1_output_0_gemm_to_dense_scratch0                                        152/152        activations/**default**   s8                      
14     _MatMul_1_output_0_gemm_to_dense_weights                                         96/96          weights/weights           const s8                
15     _MatMul_2_output_0_gemm_to_dense_in_transpose_output                             1792/1792      activations/**default**   s8                      
16     _MatMul_2_output_0_gemm_to_dense_out_transpose_output                            2688/2688      activations/**default**   s8                      
17     _MatMul_2_output_0_gemm_to_dense_output                                          2688/2688      activations/**default**   s8                      
18     _MatMul_2_output_0_gemm_to_dense_scratch0                                        152/152        activations/**default**   s8                      
19     _MatMul_2_output_0_gemm_to_dense_weights                                         96/96          weights/weights           const s8                
20     _MatMul_3_output_0_0_0_transpose_out_MatMul_3_output_0_out_conversion_output     50176/50176    activations/**default**   s8                      
21     _MatMul_3_output_0_bias_0_2__MatMul_3_output_0_conversion_output                 1/4            activations/**default**   float                   
22     _MatMul_3_output_0_bias                                                          1/1            weights/weights           const s8                
23     _MatMul_3_output_0_output                                                        50176/200704   activations/**default**   float                   
24     _MatMul_4_output_0_0_0_transpose_out_MatMul_4_output_0_out_conversion_output     2688/2688      activations/**default**   s8                      
25     _MatMul_4_output_0_bias_0_conversion_output                                      1/4            activations/**default**   float                   
26     _MatMul_4_output_0_bias                                                          1/1            weights/weights           const s8                
27     _MatMul_4_output_0_output                                                        2688/10752     activations/**default**   float                   
28     _MatMul_output_0_gemm_to_dense_bias                                              12/48          weights/weights           const s32               
29     _MatMul_output_0_gemm_to_dense_out_transpose_output                              2688/2688      activations/**default**   s8                      
30     _MatMul_output_0_gemm_to_dense_output                                            2688/2688      activations/**default**   s8                      
31     _MatMul_output_0_gemm_to_dense_scratch0                                          152/152        activations/**default**   s8                      
32     _MatMul_output_0_gemm_to_dense_weights                                           96/96          weights/weights           const s8                
33     _ReduceMean_output_0_Mul_0_0_output_QuantizeLinear_Input_conversion_output       12/12          activations/**default**   s8                      
34     _ReduceMean_output_0_Mul_bias                                                    12/48          weights/weights           const float             
35     _ReduceMean_output_0_Mul_output                                                  12/48          activations/**default**   float                   
36     _ReduceMean_output_0_Mul_scale                                                   12/48          weights/weights           const float             
37     _ReduceMean_output_0_output                                                      12/48          activations/**default**   float                   
38     _Relu_output_0_bias                                                              8/32           weights/weights           const s32               
39     _Relu_output_0_output                                                            1792/1792      activations/**default**   s8                      
40     _Relu_output_0_scratch0                                                          292/292        activations/**default**   s8                      
41     _Relu_output_0_weights                                                           72/72          weights/weights           const s8                
42     _Softmax_output_0_0_0_transpose_a_MatMul_4_output_0_out_conversion_output        50176/50176    activations/**default**   s8                      
43     _Softmax_output_0_output                                                         50176/200704   activations/**default**   float                   
44     _Unsqueeze_output_0_to_chfirst_output                                            300/300        activations/**default**   s8                      
45     input_output                                                                     300/300        activations/**default**   s8            /input    
46     output_QuantizeLinear_Input_bias                                                 1/4            weights/weights           const s32               
47     output_QuantizeLinear_Input_output                                               1/1            activations/**default**   s8            /output   
48     output_QuantizeLinear_Input_scratch0                                             12/24          activations/**default**   s16                     
49     output_QuantizeLinear_Input_weights                                              12/12          weights/weights           const s8                
50     transpose_a_MatMul_3_output_0_out_0_0__MatMul_3_output_0_conversion_output       2688/10752     activations/**default**   float                   
51     transpose_a_MatMul_3_output_0_out_output                                         2688/2688      activations/**default**   s8                      
52     transpose_a_MatMul_4_output_0_out_0_0__MatMul_4_output_0_conversion_output       50176/200704   activations/**default**   float                   
53     transpose_a_MatMul_4_output_0_out_output                                         50176/50176    activations/**default**   s8                      
54     transpose_b_MatMul_4_output_0_out_0_1__MatMul_4_output_0_conversion_output       2688/10752     activations/**default**   float                   
55     transpose_b_MatMul_4_output_0_out_output                                         2688/2688      activations/**default**   s8                      
56     transpose_out_MatMul_3_output_0_out_output                                       50176/50176    activations/**default**   s8                      
57     transpose_out_MatMul_4_output_0_out_0_0__ReduceMean_output_0_conversion_output   2688/10752     activations/**default**   float                   
58     transpose_out_MatMul_4_output_0_out_output                                       2688/2688      activations/**default**   s8                      
------ -------------------------------------------------------------------------------- -------------- ------------------------- ------------- --------- 

C-Layers (37)
------ ------------------------------------------------------------------------- ---- --------------- ----------- ----- ----------------------------------------------------------------------------------- ----------------------- 
c_id   name (*_layer)                                                            id   layer_type      macc        rom   tensors                                                                             shape (array id)        
------ ------------------------------------------------------------------------- ---- --------------- ----------- ----- ----------------------------------------------------------------------------------- ----------------------- 
2      _Unsqueeze_output_0_to_chfirst                                            12   Transpose       150         0     I: input_output                                                                     int8(1x30x10) (45)      
                                                                                                                        O: _Unsqueeze_output_0_to_chfirst_output                                            int8(1x30x10x1) (44)    
------ ------------------------------------------------------------------------- ---- --------------- ----------- ----- ----------------------------------------------------------------------------------- ----------------------- 
3      _Relu_output_0                                                            15   Conv2D          16136       104   I: _Unsqueeze_output_0_to_chfirst_output                                            int8(1x30x10x1) (44)    
                                                                                                                        S: _Relu_output_0_scratch0                                                                                  
                                                                                                                        W: _Relu_output_0_weights                                                           int8(8x3x3x1) (41)      
                                                                                                                        W: _Relu_output_0_bias                                                              int32(8) (38)           
                                                                                                                        O: _Relu_output_0_output                                                            int8(1x28x8x8) (39)     
------ ------------------------------------------------------------------------- ---- --------------- ----------- ----- ----------------------------------------------------------------------------------- ----------------------- 
4      _MatMul_output_0_gemm_to_dense                                            24   Conv2D          21516       144   I: _Relu_output_0_output                                                            int8(1x28x8x8) (39)     
                                                                                                                        S: _MatMul_output_0_gemm_to_dense_scratch0                                                                  
                                                                                                                        W: _MatMul_output_0_gemm_to_dense_weights                                           int8(12x1x1x8) (32)     
                                                                                                                        W: _MatMul_output_0_gemm_to_dense_bias                                              int32(12) (28)          
                                                                                                                        O: _MatMul_output_0_gemm_to_dense_output                                            int8(1x224x1x12) (30)   
------ ------------------------------------------------------------------------- ---- --------------- ----------- ----- ----------------------------------------------------------------------------------- ----------------------- 
5      _MatMul_output_0_gemm_to_dense_out_transpose                              24   Transpose       1344        0     I: _MatMul_output_0_gemm_to_dense_output                                            int8(1x224x1x12) (30)   
                                                                                                                        O: _MatMul_output_0_gemm_to_dense_out_transpose_output                              int8(1x12x224) (29)     
------ ------------------------------------------------------------------------- ---- --------------- ----------- ----- ----------------------------------------------------------------------------------- ----------------------- 
6      _Add_output_0                                                             33   Eltwise/add     12          12    I: _MatMul_output_0_gemm_to_dense_out_transpose_output                              int8(1x12x224) (29)     
                                                                                                                        W: _Constant_6_output_0_DequantizeLinear_Output_const_3D                            int8(12x1) (6)          
                                                                                                                        O: _Add_output_0_output                                                             int8(1x12x224) (3)      
------ ------------------------------------------------------------------------- ---- --------------- ----------- ----- ----------------------------------------------------------------------------------- ----------------------- 
7      transpose_a_MatMul_3_output_0_out                                         45   Transpose       1344        0     I: _Add_output_0_output                                                             int8(1x12x224) (3)      
                                                                                                                        O: transpose_a_MatMul_3_output_0_out_output                                         int8(1x224x12) (51)     
------ ------------------------------------------------------------------------- ---- --------------- ----------- ----- ----------------------------------------------------------------------------------- ----------------------- 
8      transpose_a_MatMul_3_output_0_out_0_0__MatMul_3_output_0_conversion       45   Conversion      5376        0     I: transpose_a_MatMul_3_output_0_out_output                                         int8(1x224x12) (51)     
                                                                                                                        O: transpose_a_MatMul_3_output_0_out_0_0__MatMul_3_output_0_conversion_output       f32(1x224x12) (50)      
------ ------------------------------------------------------------------------- ---- --------------- ----------- ----- ----------------------------------------------------------------------------------- ----------------------- 
9      _MatMul_1_output_0_gemm_to_dense_in_transpose                             25   Transpose       896         0     I: _Relu_output_0_output                                                            int8(1x28x8x8) (39)     
                                                                                                                        O: _MatMul_1_output_0_gemm_to_dense_in_transpose_output                             int8(1x224x8) (10)      
------ ------------------------------------------------------------------------- ---- --------------- ----------- ----- ----------------------------------------------------------------------------------- ----------------------- 
10     _MatMul_1_output_0_gemm_to_dense                                          25   Conv2D          21516       144   I: _MatMul_1_output_0_gemm_to_dense_in_transpose_output                             int8(1x224x8) (10)      
                                                                                                                        S: _MatMul_1_output_0_gemm_to_dense_scratch0                                                                
                                                                                                                        W: _MatMul_1_output_0_gemm_to_dense_weights                                         int8(12x1x1x8) (14)     
                                                                                                                        W: _MatMul_output_0_gemm_to_dense_bias                                              int32(12) (28)          
                                                                                                                        O: _MatMul_1_output_0_gemm_to_dense_output                                          int8(1x224x1x12) (12)   
------ ------------------------------------------------------------------------- ---- --------------- ----------- ----- ----------------------------------------------------------------------------------- ----------------------- 
11     _MatMul_1_output_0_gemm_to_dense_out_transpose                            25   Transpose       1344        0     I: _MatMul_1_output_0_gemm_to_dense_output                                          int8(1x224x1x12) (12)   
                                                                                                                        O: _MatMul_1_output_0_gemm_to_dense_out_transpose_output                            int8(1x12x224) (11)     
------ ------------------------------------------------------------------------- ---- --------------- ----------- ----- ----------------------------------------------------------------------------------- ----------------------- 
12     _Add_1_output_0                                                           34   Eltwise/add     12          12    I: _MatMul_1_output_0_gemm_to_dense_out_transpose_output                            int8(1x12x224) (11)     
                                                                                                                        W: _Constant_8_output_0_DequantizeLinear_Output_const_3D                            int8(12x1) (7)          
                                                                                                                        O: _Add_1_output_0_output                                                           int8(1x12x224) (1)      
------ ------------------------------------------------------------------------- ---- --------------- ----------- ----- ----------------------------------------------------------------------------------- ----------------------- 
13     _Add_1_output_0_0_1__MatMul_3_output_0_conversion                         34   Conversion      5376        0     I: _Add_1_output_0_output                                                           int8(1x12x224) (1)      
                                                                                                                        O: _Add_1_output_0_0_1__MatMul_3_output_0_conversion_output                         f32(1x12x224) (0)       
------ ------------------------------------------------------------------------- ---- --------------- ----------- ----- ----------------------------------------------------------------------------------- ----------------------- 
14     _MatMul_3_output_0                                                        45   Gemm            134923264   0     I: transpose_a_MatMul_3_output_0_out_0_0__MatMul_3_output_0_conversion_output       f32(1x224x12) (50)      
                                                                                                                        I: _Add_1_output_0_0_1__MatMul_3_output_0_conversion_output                         f32(1x224x12) (50)      
                                                                                                                        I: _MatMul_3_output_0_bias_0_2__MatMul_3_output_0_conversion_output                 f32(1x224x12) (50)      
                                                                                                                        O: _MatMul_3_output_0_output                                                        f32(1x224x224) (23)     
------ ------------------------------------------------------------------------- ---- --------------- ----------- ----- ----------------------------------------------------------------------------------- ----------------------- 
15     _MatMul_3_output_0_0_0_transpose_out_MatMul_3_output_0_out_conversion     45   Conversion      100352      0     I: _MatMul_3_output_0_output                                                        f32(1x224x224) (23)     
                                                                                                                        O: _MatMul_3_output_0_0_0_transpose_out_MatMul_3_output_0_out_conversion_output     int8(1x224x224) (20)    
------ ------------------------------------------------------------------------- ---- --------------- ----------- ----- ----------------------------------------------------------------------------------- ----------------------- 
16     transpose_out_MatMul_3_output_0_out                                       45   Transpose       25088       0     I: _MatMul_3_output_0_0_0_transpose_out_MatMul_3_output_0_out_conversion_output     int8(1x224x224) (20)    
                                                                                                                        O: transpose_out_MatMul_3_output_0_out_output                                       int8(1x224x224) (56)    
------ ------------------------------------------------------------------------- ---- --------------- ----------- ----- ----------------------------------------------------------------------------------- ----------------------- 
17     _Div_output_0                                                             48   Eltwise/div     250880      1     I: transpose_out_MatMul_3_output_0_out_output                                       int8(1x224x224) (56)    
                                                                                                                        W: _Constant_11_output_0_DequantizeLinear_Output_const_3D                           int8(1x1) (5)           
                                                                                                                        O: _Div_output_0_output                                                             int8(1x224x224) (9)     
------ ------------------------------------------------------------------------- ---- --------------- ----------- ----- ----------------------------------------------------------------------------------- ----------------------- 
18     _Div_output_0_0_0__Softmax_output_0_conversion                            48   Conversion      100352      0     I: _Div_output_0_output                                                             int8(1x224x224) (9)     
                                                                                                                        O: _Div_output_0_0_0__Softmax_output_0_conversion_output                            f32(1x224x224) (8)      
------ ------------------------------------------------------------------------- ---- --------------- ----------- ----- ----------------------------------------------------------------------------------- ----------------------- 
19     _Softmax_output_0                                                         51   Nonlinearity    752640      0     I: _Div_output_0_0_0__Softmax_output_0_conversion_output                            f32(1x224x224) (8)      
                                                                                                                        O: _Softmax_output_0_output                                                         f32(1x224x224) (43)     
------ ------------------------------------------------------------------------- ---- --------------- ----------- ----- ----------------------------------------------------------------------------------- ----------------------- 
20     _Softmax_output_0_0_0_transpose_a_MatMul_4_output_0_out_conversion        51   Conversion      100352      0     I: _Softmax_output_0_output                                                         f32(1x224x224) (43)     
                                                                                                                        O: _Softmax_output_0_0_0_transpose_a_MatMul_4_output_0_out_conversion_output        int8(1x224x224) (42)    
------ ------------------------------------------------------------------------- ---- --------------- ----------- ----- ----------------------------------------------------------------------------------- ----------------------- 
21     transpose_a_MatMul_4_output_0_out                                         54   Transpose       25088       0     I: _Softmax_output_0_0_0_transpose_a_MatMul_4_output_0_out_conversion_output        int8(1x224x224) (42)    
                                                                                                                        O: transpose_a_MatMul_4_output_0_out_output                                         int8(1x224x224) (53)    
------ ------------------------------------------------------------------------- ---- --------------- ----------- ----- ----------------------------------------------------------------------------------- ----------------------- 
22     transpose_a_MatMul_4_output_0_out_0_0__MatMul_4_output_0_conversion       54   Conversion      100352      0     I: transpose_a_MatMul_4_output_0_out_output                                         int8(1x224x224) (53)    
                                                                                                                        O: transpose_a_MatMul_4_output_0_out_0_0__MatMul_4_output_0_conversion_output       f32(1x224x224) (52)     
------ ------------------------------------------------------------------------- ---- --------------- ----------- ----- ----------------------------------------------------------------------------------- ----------------------- 
23     _MatMul_2_output_0_gemm_to_dense_in_transpose                             26   Transpose       896         0     I: _Relu_output_0_output                                                            int8(1x28x8x8) (39)     
                                                                                                                        O: _MatMul_2_output_0_gemm_to_dense_in_transpose_output                             int8(1x224x8) (15)      
------ ------------------------------------------------------------------------- ---- --------------- ----------- ----- ----------------------------------------------------------------------------------- ----------------------- 
24     _MatMul_2_output_0_gemm_to_dense                                          26   Conv2D          21516       144   I: _MatMul_2_output_0_gemm_to_dense_in_transpose_output                             int8(1x224x8) (15)      
                                                                                                                        S: _MatMul_2_output_0_gemm_to_dense_scratch0                                                                
                                                                                                                        W: _MatMul_2_output_0_gemm_to_dense_weights                                         int8(12x1x1x8) (19)     
                                                                                                                        W: _MatMul_output_0_gemm_to_dense_bias                                              int32(12) (28)          
                                                                                                                        O: _MatMul_2_output_0_gemm_to_dense_output                                          int8(1x224x1x12) (17)   
------ ------------------------------------------------------------------------- ---- --------------- ----------- ----- ----------------------------------------------------------------------------------- ----------------------- 
25     _MatMul_2_output_0_gemm_to_dense_out_transpose                            26   Transpose       1344        0     I: _MatMul_2_output_0_gemm_to_dense_output                                          int8(1x224x1x12) (17)   
                                                                                                                        O: _MatMul_2_output_0_gemm_to_dense_out_transpose_output                            int8(1x12x224) (16)     
------ ------------------------------------------------------------------------- ---- --------------- ----------- ----- ----------------------------------------------------------------------------------- ----------------------- 
26     _Add_2_output_0                                                           35   Eltwise/add     12          12    I: _MatMul_2_output_0_gemm_to_dense_out_transpose_output                            int8(1x12x224) (16)     
                                                                                                                        W: _Constant_10_output_0_DequantizeLinear_Output_const_3D                           int8(12x1) (4)          
                                                                                                                        O: _Add_2_output_0_output                                                           int8(1x12x224) (2)      
------ ------------------------------------------------------------------------- ---- --------------- ----------- ----- ----------------------------------------------------------------------------------- ----------------------- 
27     transpose_b_MatMul_4_output_0_out                                         54   Transpose       1344        0     I: _Add_2_output_0_output                                                           int8(1x12x224) (2)      
                                                                                                                        O: transpose_b_MatMul_4_output_0_out_output                                         int8(1x224x12) (55)     
------ ------------------------------------------------------------------------- ---- --------------- ----------- ----- ----------------------------------------------------------------------------------- ----------------------- 
28     transpose_b_MatMul_4_output_0_out_0_1__MatMul_4_output_0_conversion       54   Conversion      5376        0     I: transpose_b_MatMul_4_output_0_out_output                                         int8(1x224x12) (55)     
                                                                                                                        O: transpose_b_MatMul_4_output_0_out_0_1__MatMul_4_output_0_conversion_output       f32(1x224x12) (54)      
------ ------------------------------------------------------------------------- ---- --------------- ----------- ----- ----------------------------------------------------------------------------------- ----------------------- 
29     _MatMul_4_output_0                                                        54   Gemm            134875776   0     I: transpose_a_MatMul_4_output_0_out_0_0__MatMul_4_output_0_conversion_output       f32(1x224x224) (52)     
                                                                                                                        I: transpose_b_MatMul_4_output_0_out_0_1__MatMul_4_output_0_conversion_output       f32(1x224x224) (52)     
                                                                                                                        I: _MatMul_4_output_0_bias_0_conversion_output                                      f32(1x224x224) (52)     
                                                                                                                        O: _MatMul_4_output_0_output                                                        f32(1x224x12) (27)      
------ ------------------------------------------------------------------------- ---- --------------- ----------- ----- ----------------------------------------------------------------------------------- ----------------------- 
30     _MatMul_4_output_0_0_0_transpose_out_MatMul_4_output_0_out_conversion     54   Conversion      5376        0     I: _MatMul_4_output_0_output                                                        f32(1x224x12) (27)      
                                                                                                                        O: _MatMul_4_output_0_0_0_transpose_out_MatMul_4_output_0_out_conversion_output     int8(1x224x12) (24)     
------ ------------------------------------------------------------------------- ---- --------------- ----------- ----- ----------------------------------------------------------------------------------- ----------------------- 
31     transpose_out_MatMul_4_output_0_out                                       54   Transpose       1344        0     I: _MatMul_4_output_0_0_0_transpose_out_MatMul_4_output_0_out_conversion_output     int8(1x224x12) (24)     
                                                                                                                        O: transpose_out_MatMul_4_output_0_out_output                                       int8(1x12x224) (58)     
------ ------------------------------------------------------------------------- ---- --------------- ----------- ----- ----------------------------------------------------------------------------------- ----------------------- 
32     transpose_out_MatMul_4_output_0_out_0_0__ReduceMean_output_0_conversion   54   Conversion      5376        0     I: transpose_out_MatMul_4_output_0_out_output                                       int8(1x12x224) (58)     
                                                                                                                        O: transpose_out_MatMul_4_output_0_out_0_0__ReduceMean_output_0_conversion_output   f32(1x12x224) (57)      
------ ------------------------------------------------------------------------- ---- --------------- ----------- ----- ----------------------------------------------------------------------------------- ----------------------- 
33     _ReduceMean_output_0                                                      57   Reduce          2688        0     I: transpose_out_MatMul_4_output_0_out_0_0__ReduceMean_output_0_conversion_output   f32(1x12x224) (57)      
                                                                                                                        O: _ReduceMean_output_0_output                                                      f32(1x12x1) (37)        
------ ------------------------------------------------------------------------- ---- --------------- ----------- ----- ----------------------------------------------------------------------------------- ----------------------- 
34     _ReduceMean_output_0_Mul                                                  57   ScaleBias       24          96    I: _ReduceMean_output_0_output                                                      f32(1x12x1) (37)        
                                                                                                                        W: _ReduceMean_output_0_Mul_scale                                                   f32(12) (36)            
                                                                                                                        W: _ReduceMean_output_0_Mul_bias                                                    f32(12) (34)            
                                                                                                                        O: _ReduceMean_output_0_Mul_output                                                  f32(1x12) (35)          
------ ------------------------------------------------------------------------- ---- --------------- ----------- ----- ----------------------------------------------------------------------------------- ----------------------- 
35     _ReduceMean_output_0_Mul_0_0_output_QuantizeLinear_Input_conversion       57   Conversion      24          0     I: _ReduceMean_output_0_Mul_output                                                  f32(1x12) (35)          
                                                                                                                        O: _ReduceMean_output_0_Mul_0_0_output_QuantizeLinear_Input_conversion_output       int8(1x12) (33)         
------ ------------------------------------------------------------------------- ---- --------------- ----------- ----- ----------------------------------------------------------------------------------- ----------------------- 
36     output_QuantizeLinear_Input                                               60   Dense           13          16    I: _ReduceMean_output_0_Mul_0_0_output_QuantizeLinear_Input_conversion_output       int8(1x12) (33)         
                                                                                                                        S: output_QuantizeLinear_Input_scratch0                                                                     
                                                                                                                        W: output_QuantizeLinear_Input_weights                                              int8(1x12) (49)         
                                                                                                                        W: output_QuantizeLinear_Input_bias                                                 int32(1) (46)           
                                                                                                                        O: output_QuantizeLinear_Input_output                                               int8(1x1) (47)          
------ ------------------------------------------------------------------------- ---- --------------- ----------- ----- ----------------------------------------------------------------------------------- ----------------------- 



Number of operations per c-layer
------- ------ --------------------------------------------- ------------- -------------- 
c_id    m_id   name (type)                                             #op           type 
------- ------ --------------------------------------------- ------------- -------------- 
0       54     _MatMul_4_output_0..conversion (Conversion)               2     smul_s8_s8 
1       45     _MatMul_3_output_0..conversion (Conversion)               2     smul_s8_s8 
2       12     _Unsqueeze_output_0_to_chfirst (Transpose)              150     smul_s8_s8 
3       15     _Relu_output_0 (Conv2D)                              16,136     smul_s8_s8 
4       24     _MatMul_output_0_gemm_to_dense (Conv2D)              21,516     smul_s8_s8 
5       24     _MatMul_output_0_g.._transpose (Transpose)            1,344     smul_s8_s8 
6       33     _Add_output_0 (Eltwise/add)                              12       op_s8_s8 
7       45     transpose_a_MatMul..tput_0_out (Transpose)            1,344     smul_s8_s8 
8       45     transpose_a_MatMul..conversion (Conversion)           5,376    smul_s8_f32 
9       25     _MatMul_1_output_0.._transpose (Transpose)              896     smul_s8_s8 
10      25     _MatMul_1_output_0..m_to_dense (Conv2D)              21,516     smul_s8_s8 
11      25     _MatMul_1_output_0.._transpose (Transpose)            1,344     smul_s8_s8 
12      34     _Add_1_output_0 (Eltwise/add)                            12       op_s8_s8 
13      34     _Add_1_output_0_0_..conversion (Conversion)           5,376    smul_s8_f32 
14      45     _MatMul_3_output_0 (Gemm)                       134,923,264   smul_f32_f32 
15      45     _MatMul_3_output_0..conversion (Conversion)         100,352    smul_f32_s8 
16      45     transpose_out_MatM..tput_0_out (Transpose)           25,088     smul_s8_s8 
17      48     _Div_output_0 (Eltwise/div)                         250,880       op_s8_s8 
18      48     _Div_output_0_0_0_..conversion (Conversion)         100,352    smul_s8_f32 
19      51     _Softmax_output_0 (Nonlinearity)                    752,640     op_f32_f32 
20      51     _Softmax_output_0_..conversion (Conversion)         100,352    smul_f32_s8 
21      54     transpose_a_MatMul..tput_0_out (Transpose)           25,088     smul_s8_s8 
22      54     transpose_a_MatMul..conversion (Conversion)         100,352    smul_s8_f32 
23      26     _MatMul_2_output_0.._transpose (Transpose)              896     smul_s8_s8 
24      26     _MatMul_2_output_0..m_to_dense (Conv2D)              21,516     smul_s8_s8 
25      26     _MatMul_2_output_0.._transpose (Transpose)            1,344     smul_s8_s8 
26      35     _Add_2_output_0 (Eltwise/add)                            12       op_s8_s8 
27      54     transpose_b_MatMul..tput_0_out (Transpose)            1,344     smul_s8_s8 
28      54     transpose_b_MatMul..conversion (Conversion)           5,376    smul_s8_f32 
29      54     _MatMul_4_output_0 (Gemm)                       134,875,776   smul_f32_f32 
30      54     _MatMul_4_output_0..conversion (Conversion)           5,376    smul_f32_s8 
31      54     transpose_out_MatM..tput_0_out (Transpose)            1,344     smul_s8_s8 
32      54     transpose_out_MatM..conversion (Conversion)           5,376    smul_s8_f32 
33      57     _ReduceMean_output_0 (Reduce)                         2,688   smul_f32_f32 
34      57     _ReduceMean_output_0_Mul (ScaleBias)                     24   smul_f32_f32 
35      57     _ReduceMean_output..conversion (Conversion)              24    smul_f32_s8 
36      60     output_QuantizeLinear_Input (Dense)                      13     smul_s8_s8 
------- ------ --------------------------------------------- ------------- -------------- 
total                                                          271,374,503 

Number of operation types
---------------- ------------- ----------- 
operation type               #           % 
---------------- ------------- ----------- 
smul_s8_s8             140,883        0.1% 
op_s8_s8               250,916        0.1% 
smul_s8_f32            222,208        0.1% 
smul_f32_f32       269,801,752       99.4% 
smul_f32_s8            206,104        0.1% 
op_f32_f32             752,640        0.3% 

Complexity report (model)
------ ----------------------------- ------------------------- ------------------------- ------------------------------------- 
m_id   name                          c_macc                    c_rom                     c_id                                  
------ ----------------------------- ------------------------- ------------------------- ------------------------------------- 
12     _Unsqueeze_output_0           |                  0.0%   |                  0.0%   [2]                                   
15     _Relu_output_0                |                  0.0%   |||||||||||       17.3%   [3]                                   
24     _MatMul_output_0              |                  0.0%   ||||||||||||||||  24.0%   [4, 5]                                
25     _MatMul_1_output_0            |                  0.0%   ||||||||||||||||  24.0%   [9, 10, 11]                           
26     _MatMul_2_output_0            |                  0.0%   ||||||||||||||||  24.0%   [23, 24, 25]                          
33     _Add_output_0                 |                  0.0%   ||                 2.0%   [6]                                   
34     _Add_1_output_0               |                  0.0%   ||                 2.0%   [12, 13]                              
35     _Add_2_output_0               |                  0.0%   ||                 2.0%   [26]                                  
45     _MatMul_3_output_0            ||||||||||||||||  49.8%   |                  0.2%   [1, 7, 8, 14, 15, 16]                 
48     _Div_output_0                 |                  0.1%   |                  0.2%   [17, 18]                              
51     _Softmax_output_0             |                  0.3%   |                  0.0%   [19, 20]                              
54     _MatMul_4_output_0            |||||||||||||||   49.8%   |                  0.2%   [0, 21, 22, 27, 28, 29, 30, 31, 32]   
57     _ReduceMean_output_0          |                  0.0%   |||||||||||       16.0%   [33, 34, 35]                          
60     output_QuantizeLinear_Input   |                  0.0%   ||                 2.7%   [36]                                  
------ ----------------------------- ------------------------- ------------------------- ------------------------------------- 
macc=271,374,503 weights=600 act=224,008 ram_io=0
 
 Requested memory size by section - "stm32f4" target
 ------------------------------ -------- -------- ------- --------- 
 module                             text   rodata    data       bss 
 ------------------------------ -------- -------- ------- --------- 
 NetworkRuntime1100_CM4_GCC.a     19,716        0       0         0 
 network.o                         5,114      739   4,988       144 
 lib (toolchain)*                  2,730       24       0         0 
 ------------------------------ -------- -------- ------- --------- 
 RT total**                       27,560      763   4,988       144 
 ------------------------------ -------- -------- ------- --------- 
 weights                               0      600       0         0 
 activations                           0        0       0   224,008 
 states                                0        0       0         0 
 io                                    0        0       0         0 
 ------------------------------ -------- -------- ------- --------- 
 TOTAL                            27,560    1,363   4,988   224,152 
 ------------------------------ -------- -------- ------- --------- 
 *  toolchain objects (libm/libgcc*)
 ** RT AI runtime objects (kernels+infrastructure)
  
  Summary - "stm32f4" target
  --------------------------------------------------
               FLASH (ro)      %*   RAM (rw)      % 
  --------------------------------------------------
  RT total         33,311   98.2%      5,132   2.2% 
  --------------------------------------------------
  TOTAL            33,911            229,140        
  --------------------------------------------------
  *  rt/total


Generated files (5)
------------------------------------------------------------------------------------ 
/tmp/stm32ai_service/d585f007-e6cd-4e1b-958c-81d9631aa487/output/network_data.h      
/tmp/stm32ai_service/d585f007-e6cd-4e1b-958c-81d9631aa487/output/network_data.c      
/tmp/stm32ai_service/d585f007-e6cd-4e1b-958c-81d9631aa487/output/network.h           
/tmp/stm32ai_service/d585f007-e6cd-4e1b-958c-81d9631aa487/output/network.c           
/tmp/stm32ai_service/d585f007-e6cd-4e1b-958c-81d9631aa487/output/network_details.h   
